…
   },
   "outputs": [
    {
     "name": "stderr",
     "output_type": "stream",
     "text": [
      "100%|██████████| 251008/251008 [00:00<00:00, 1583394.66it/s]\n"
     ]
    },
    {
     "name": "stdout",
     "output_type": "stream",
     "text": [
      "len of X: 251008, # of categories: 153\n",
      "Model: \"sequential\"\n",
      "_________________________________________________________________\n",
      "Layer (type)                 Output Shape              Param #   \n",
      "=================================================================\n",
      "conv2d (Conv2D)              (None, 222, 222, 64)      1792      \n",
      "_________________________________________________________________\n",
      "conv2d_1 (Conv2D)            (None, 220, 220, 64)      36928     \n",
      "_________________________________________________________________\n",
      "batch_normalization (BatchNo (None, 220, 220, 64)      256       \n",
      "_________________________________________________________________\n",
      "activation (Activation)      (None, 220, 220, 64)      0         \n",
      "_________________________________________________________________\n",
      "max_pooling2d (MaxPooling2D) (None, 110, 110, 64)      0         \n",
      "_________________________________________________________________\n",
      "conv2d_2 (Conv2D)            (None, 108, 108, 128)     73856     \n",
      "_________________________________________________________________\n",
      "conv2d_3 (Conv2D)            (None, 106, 106, 128)     147584    \n",
      "_________________________________________________________________\n",
      "batch_normalization_1 (Batch (None, 106, 106, 128)     512       \n",
      "_________________________________________________________________\n",
      "activation_1 (Activation)    (None, 106, 106, 128)     0         \n",
      "_________________________________________________________________\n",
      "max_pooling2d_1 (MaxPooling2 (None, 53, 53, 128)       0         \n",
      "_________________________________________________________________\n",
      "conv2d_4 (Conv2D)            (None, 51, 51, 128)       147584    \n",
      "_________________________________________________________________\n",
      "batch_normalization_2 (Batch (None, 51, 51, 128)       512       \n",
      "_________________________________________________________________\n",
      "activation_2 (Activation)    (None, 51, 51, 128)       0         \n",
      "_________________________________________________________________\n",
      "conv2d_5 (Conv2D)            (None, 49, 49, 128)       147584    \n",
      "_________________________________________________________________\n",
      "max_pooling2d_2 (MaxPooling2 (None, 24, 24, 128)       0         \n",
      "_________________________________________________________________\n",
      "flatten (Flatten)            (None, 73728)             0         \n",
      "_________________________________________________________________\n",
      "batch_normalization_3 (Batch (None, 73728)             294912    \n",
      "_________________________________________________________________\n",
      "dropout (Dropout)            (None, 73728)             0         \n",
      "_________________________________________________________________\n",
      "dense (Dense)                (None, 512)               37749248  \n",
      "_________________________________________________________________\n",
      "batch_normalization_4 (Batch (None, 512)               2048      \n",
      "_________________________________________________________________\n",
      "dropout_1 (Dropout)          (None, 512)               0         \n",
      "_________________________________________________________________\n",
      "dense_1 (Dense)              (None, 256)               131328    \n",
      "_________________________________________________________________\n",
      "dense_2 (Dense)              (None, 153)               39321     \n",
      "=================================================================\n",
      "Total params: 38,773,465\n",
      "Trainable params: 38,624,345\n",
      "Non-trainable params: 149,120\n",
      "_________________________________________________________________\n",
      "Epoch 1/20\n",
      "3137/3137 [==============================] - 1058s 337ms/step - loss: 2.2413 - accuracy: 0.4433 - val_loss: 1.8745 - val_accuracy: 0.5079\n",
…
